tutorials/utr-function-prediction/result/CNN_emb-rnafm_best_utr_predictor.pth (torch, 796474 bytes, 80 tensors)

reductio_module.weight f4 [32, 640]
000000 b4 7b a3 3e ea 7a 17 3d a1 7a 14 3e b0 05 09 3e
       0.31930315 0.036982454 0.14499904 0.13381076
000010 ac 05 00 be 8c d6 a1 3d 42 55 32 bd 7e c0 7e 3c
       -0.12502164 0.0790225 -0.04353834 0.015548823
000020 8e 52 23 be 92 df cd bd 31 fc a2 3d 3d fa 02 be
       -0.15949461 -0.10052408 0.07958258 -0.12790771
000030 93 98 69 bc 6c 28 80 bd 9b 7f b2 b7 66 97 80 bd
       -0.014257568 -0.0625771 -2.1278674e-05 -0.06278877
000040 4a b4 29 3d 00 01 14 3e 72 d6 e7 3d ae c3 78 3e
       0.041431703 0.14453506 0.11320199 0.24293396
000050 00 4b 3b 3e 29 66 9f 3d d4 80 06 3e 54 4f d6 3c
       0.18290329 0.077831574 0.13135082 0.026160873
000060 03 99 16 bd c2 08 3c bd f0 28 2e 3d 28 c0 d0 3d
       -0.036767017 -0.04590679 0.04251951 0.10192901
000070 89 41 03 be 03 2a 67 3e 74 0d cc bc 3e a2 d4 3b
       -0.12817968 0.2257462 -0.024908759 0.0064890673
000080 8f 30 cc 3c 5d e4 cf bd bc 18 2c bc d6 a8 86 bc
       0.024925498 -0.10150979 -0.010503944 -0.01643793
000090 ac 69 fa bd 56 2c 00 3e af 5f 53 3e b3 0d 80 be
       -0.122271866 0.12516913 0.20641969 -0.25010452
0000a0 f8 67 9a 3d 60 b9 c9 bd b1 27 eb 3d 99 3b c4 bc
       0.07539362 -0.098498106 0.1148218 -0.0239542
0000b0 fd cf 81 bd 47 8f d7 3b 4a 27 02 3d fd e9 80 be
       -0.06338499 0.0065783593 0.03177575 -0.2517852
0000c0 57 00 0a 3e fd 6f 3d 3d 49 eb b7 3d db 2a 5c 3c
       0.13476692 0.04624938 0.08980424 0.013437952
0000d0 43 c1 d6 3d 2c cf 75 bd ff 9e 2b 3e d1 cd 8a 3d
       0.104860805 -0.060012028 0.16759871 0.067775376
0000e0 83 58 01 3d bb 54 f3 bd b3 bb 83 3d 6e 5a 85 be
       0.031578552 -0.118813954 0.06432285 -0.26045555
0000f0 f9 4e b0 3d 7b 90 09 3e 0b 77 97 3d 27 60 ed bc
       0.08608813 0.13434021 0.073957525 -0.028976513
000100 c7 6c 0f 3d 61 d9 12 bd 17 4c 50 ba 2d 19 0f 3e
       0.035015848 -0.03585184 -0.00079459086 0.13974448
000110 f5 8d 9c 3d c8 79 93 bd 78 b3 2f 3e 64 91 65 3e
       0.07644264 -0.07200962 0.17158306 0.22418743
000120 fc 27 4b 3e 4e 10 09 3e 89 ea 56 3e 58 fa c8 bc
       0.19839472 0.13385126 0.20987906 -0.024533436
000130 bd 98 1f bb f2 20 df 3b 0b ab 1b be e2 6c c4 3d
       -0.0024352514 0.0068093473 -0.15201966 0.0959108
000140 2c 09 12 bc c5 68 7c bd e3 b0 d0 3b e9 2d 00 be
       -0.00891332 -0.061623354 0.006368743 -0.12517513
000150 2b 3b 3c be f2 a7 1a be 9e 90 9c 3e e0 dd b3 3d
       -0.18381946 -0.15103129 0.30579084 0.08782554
000160 bf f6 52 be 10 24 3d be 84 3e b3 bd 50 d9 4e 3d
       -0.20601939 -0.18470788 -0.08752158 0.050500214
000170 e4 d1 47 be 4f 5f 9d be e9 c8 4e be 19 7e 03 be
       -0.1951366 -0.30736777 -0.20193829 -0.12841071
000180 3d 61 bc bd e3 cd ce bc da 58 0a bd 11 bf 44 be
       -0.09198234 -0.025244659 -0.03377614 -0.19213511
000190 d9 5a 87 3c c3 25 ad bb 89 6a 30 be 16 31 ed 3d
       0.016522812 -0.0052840426 -0.1722814 0.11581628
0001a0 b9 de 6c bd 38 5f 00 3e fa d0 e2 bd 24 d0 26 3e
       -0.057829592 0.12536323 -0.11075015 0.16290337
0001b0 57 2d 7c bd 64 87 70 3d 11 5e cc bd ab e1 87 bd
       -0.061566677 0.05872287 -0.09978879 -0.066348396
0001c0 b5 f1 02 be 59 f4 32 be fd 99 cf bd 72 c4 54 bd
       -0.12787516 -0.17476024 -0.10136793 -0.051945157
0001d0 90 3c 29 bc 01 78 c3 bd d6 fd 4d 3d 7f 6a 51 bd
       -0.010329381 -0.09544373 0.050290905 -0.051126953
0001e0 8b 36 d4 3d 28 93 91 3d 13 c4 36 3c 7a 02 ef 3d
       0.10361966 0.07108146 0.011155146 0.11670394
0001f0 ab ea f8 3c 32 0c f6 3c 14 73 8b 3c b1 46 15 be
       0.030385336 0.030035112 0.017022647 -0.14577748
000200 03 fc fd bd d2 a5 3e bd 50 ba 10 be 91 48 1b be
       -0.12401583 -0.046544857 -0.14133573 -0.151644
000210 d4 3f 4e 3c 60 a0 22 be 61 e3 0d be d4 69 39 3e
       0.01258846 -0.1588149 -0.1385627 0.18106776
000220 3e 76 09 3e 8c fe 41 3e 02 4f fd bd 9a 53 69 3e
       0.13424012 0.18944758 -0.12368585 0.22785798
000230 d0 30 c2 bd 2b a0 90 bd fe 12 16 be 54 68 3a 3e
       -0.094819665 -0.070617996 -0.14655682 0.1820386
000240 0d e2 22 3d d9 5f b0 bb 3b ae 97 3c 45 7d af bd
       0.03976636 -0.0053825197 0.018515697 -0.08568815
000250 9b e5 a3 3d 83 25 22 be 0e 9e 29 bd aa 05 61 be
       0.08002778 -0.15834622 -0.0414105 -0.21974817
000260 3d de 55 3e 3f 53 0c bc c8 93 c4 bc d3 dc ee bb
       0.20885558 -0.008564769 -0.023996249 -0.007289508
000270 e8 1a 79 be 5b 20 2f 3e f1 63 3e 3c 5d 02 5a bb
       -0.2432667 0.17102186 0.011620508 -0.0033265569
000280 0e 05 29 bd ae b0 26 3d 2a 1d 3a 3e c3 cc 34 be
       -0.041264586 0.04069584 0.18175188 -0.17656235
000290 32 0b 1d 3e b1 ea 54 3e cf c7 03 bc fe ea bf 3e
       0.15336302 0.20792653 -0.008043244 0.37483972
0002a0 53 bb 2d bd 23 1b 00 3d ce 77 ba bc 68 69 44 be
       -0.042414974 0.03127588 -0.022762205 -0.19180834
0002b0 13 fe 04 3d fc 49 70 be cb 07 dd 3d 04 5e 67 bd
       0.032468867 -0.23465723 0.10792502 -0.056486145
0002c0 7e 1e a2 3d c7 35 a7 bd 6a 2a 05 3e 2b 5e 20 be
       0.07915972 -0.08164554 0.13004461 -0.15660922
0002d0 90 8f 05 3e 65 09 4c be 72 04 87 3d 63 1f da bd
       0.13043046 -0.19925459 0.06592645 -0.10650518
0002e0 2d c5 f1 bc b3 50 bd 3c 37 50 d9 3d 1a 83 67 be
       -0.029512966 0.02310977 0.10611003 -0.22608605
0002f0 6f 27 2f 3e cc fd 48 be ed cb df bb a6 0d 27 be
       0.17104886 -0.19628066 -0.00682973 -0.163138
000300 f8 7f e6 bd f1 e1 f3 3b 53 69 ca bd 18 ab 30 be
       -0.11254877 0.007442706 -0.0988337 -0.17252767
000310 38 99 b4 3d 24 9e 90 3d c8 2b 2a bd 79 ac 2a bd
       0.08818287 0.07061413 -0.04154566 -0.04166839
000320 5c 38 24 3c 9b 60 2b 3e fc e0 9f bd 38 00 80 3d
       0.010023203 0.16736071 -0.07806584 0.06250042
000330 73 69 95 3d 67 86 39 3a 8d cf 58 bd c8 e9 0d be
       0.072955035 0.00070772175 -0.05293231 -0.13858712
000340 b8 ea 9d bd f0 ce 60 be 3d 6a b6 3c 1b 27 f9 bc
       -0.07710785 -0.2195394 0.022267455 -0.030414155
000350 b3 71 5a 3e 53 a8 23 3d ca f7 cc bd f2 62 56 bd
       0.21332435 0.03995545 -0.100081995 -0.052340455
000360 6b f8 86 be f8 15 c4 3d 0e 38 45 3d e5 4f 8c bd
       -0.26361403 0.09574503 0.04814916 -0.06851176
000370 f8 c5 4e bc c3 bf 9e be ba d6 4d 3d a0 62 af 3c
       -0.012620442 -0.31005678 0.050253607 0.021409333
000380 c3 06 8f be 4f f9 ae bc c5 63 4b 3e df 33 97 3d
       -0.27934846 -0.021359114 0.19862278 0.073829405
000390 2c 2b eb bd 63 b1 5a 3d f4 5c 40 be f0 a3 6d be
       -0.11482844 0.053391825 -0.18785459 -0.23207068
0003a0 8d c7 f5 3c 61 ad 8e bd eb f6 d8 3d b1 ba f2 3d
       0.03000238 -0.06966663 0.10593971 0.11852015
0003b0 a6 a9 62 be 35 d6 63 3d 3a 73 8e 3e dd d3 d4 3d
       -0.22135028 0.055624206 0.27822286 0.10391972
0003c0 26 53 87 be 58 17 c7 bd 00 cd 89 3e 8a 8d 0e 3d
       -0.26430625 -0.09721249 0.26914215 0.03480295
0003d0 bd eb 6f 3e fc 02 14 bd d5 af 29 3e dc e5 21 be
       0.23429771 -0.03613566 0.16570981 -0.1581034
0003e0 be 45 06 3e 25 e4 02 3d 4a 39 13 3e 95 0a 7f be
       0.13112542 0.031955857 0.14377323 -0.2490638
0003f0 4a 14 2a 3e e6 73 e1 bb 0d 1f 1e be eb 81 58 bd
       0.16609302 -0.0068802712 -0.15441532 -0.052858274

reductio_module.bias f4 [32]
000000 21 4d 4e 3e f0 93 42 bf 58 41 32 be 57 95 21 be
       0.2014661 -0.76006985 -0.17407739 -0.15779625
000010 e4 94 53 be a3 f5 97 bb 48 c6 39 3f 04 8b b8 be
       -0.20662266 -0.0046374365 0.7256818 -0.3604356
000020 ad 78 27 be 41 43 aa be 64 d5 8c 3e db ef 7b 3e
       -0.16354628 -0.33254436 0.27506554 0.24603216
000030 36 18 9b be af 60 52 be 3f 75 94 bc 68 55 67 3d
       -0.3029191 -0.20544694 -0.018122314 0.056477934
000040 ed 5d 8b 3e e7 0a f1 be 34 9d 93 3e 72 68 87 3e
       0.27220097 -0.4707863 0.28830874 0.26446873
000050 1e e6 08 bf 9b 7a 6c 3d 94 c8 0c bf 04 61 16 3e
       -0.5347613 0.057734113 -0.5499356 0.14685446
000060 80 ac a5 3e 9d 42 1a 39 42 27 62 be 1d 21 b7 be
       0.3235817 0.000147114 -0.22085288 -0.3576745
000070 83 3e 38 bc df 74 8f 3e 66 30 1c bf d9 e8 f5 be
       -0.011245373 0.28018853 -0.6101135 -0.4802921

predictor.0.weight f4 [64, 32, 3]
000000 ef e2 93 3d 5f 34 89 3e e2 8f 37 bd 37 44 19 be
       0.072210185 0.26797768 -0.04481495 -0.14967428
000010 28 c2 09 bd 89 ce 0e be 41 2f c3 3e 1f 80 3e 3d
       -0.033632427 -0.13945974 0.3812199 0.046508905
000020 89 fb e7 3d 42 2b 95 3c 12 e4 7c 3d bb 6d 75 3e
       0.113272734 0.018209103 0.061740942 0.2396764
000030 ad 4f 15 bd c3 7f f5 bd 81 d4 de 3d 68 bc df bc
       -0.036452938 -0.11987259 0.10880376 -0.027311519
000040 1a 4a 72 3e 63 bd 15 be ea 2a a8 3e 7e 6c a0 3e
       0.2366108 -0.14623027 0.3284524 0.31332773
000050 46 d9 4f 3e 73 f1 00 bd 66 d8 50 3d 1a ad 60 be
       0.20297727 -0.031480264 0.050987624 -0.21941033
000060 a4 20 1f bf 92 59 69 3d a4 a2 c7 be 48 00 eb be
       -0.6215918 0.056970187 -0.38991272 -0.45898652
000070 73 59 6f 3e b6 6d 09 3e ed 95 95 3e f1 a8 b5 3c
       0.23373966 0.13420758 0.29215947 0.022175284
000080 f4 d0 cd bb 4d 5f 8c 3e f9 2c ed bd b8 39 38 3d
       -0.0062810127 0.2741646 -0.115808435 0.04497692
000090 ef a7 d6 3c bd c3 67 3d 4a 1d 1e be 68 51 3d bd
       0.026203124 0.056583155 -0.1544086 -0.046220213
0000a0 6d 97 73 bd 62 07 9c be 04 3d f9 bc c1 06 27 bd
       -0.059470583 -0.30474383 -0.030424602 -0.040777925
0000b0 84 ea 77 be 48 be 90 3e 0a 84 3f 3e 31 9b 39 3c
       -0.24210554 0.28270173 0.18702713 0.011328504
0000c0 40 a5 ea 3d eb 29 e0 bc c0 40 86 be 38 81 17 3e
       0.114573 -0.027363738 -0.26221275 0.14795387
0000d0 83 3a 25 bc 4d b2 c3 be 9b e0 00 be 35 8d 15 be
       -0.010084751 -0.3822197 -0.1258568 -0.14604647
0000e0 a3 e1 0c be 44 3b 61 bc 4e 7f 3e 3d 81 92 01 3f
       -0.13757949 -0.01374704 0.046508126 0.5061417
0000f0 65 17 a1 3d 9a ac 02 3e cb 17 30 be a4 43 04 bb
       0.0786579 0.12761155 -0.17196576 -0.0020181919
000100 1f ad ff be ae 31 f2 bd e5 60 32 be 9f 26 36 3e
       -0.49936768 -0.11825882 -0.17419775 0.1778817
000110 08 fe c4 bd b4 5c 9a bd a1 88 38 be d4 a1 ab 3d
       -0.09618765 -0.07537213 -0.1802087 0.08380476
000120 ea 0c 0e be bd 9d 4a 3d da f9 8d 3d dd 5b f9 bd
       -0.13872114 0.049466837 0.06932421 -0.12175725
000130 68 98 4d 3e 9e 11 21 be 0c 9d a3 3e fc ae 1f 3c
       0.2007767 -0.15729377 0.31955755 0.009746309
000140 ea 17 73 be 87 7a be bb 3c ce 19 3e 7c 80 24 3e
       -0.23739591 -0.0058129462 0.15020078 0.16064638
000150 f0 d3 cb 3e bc 4b 12 be 84 3d 0e be 9f 3e 81 3e
       0.39810133 -0.14286703 -0.13890654 0.2524309
000160 ad 6e 48 bd 82 51 64 3e e1 7b 67 be 34 b0 6b bd
       -0.048933674 0.22296718 -0.2260585 -0.057541087
000170 0d 34 cf be 44 13 8c 3d d5 d7 83 3e fd 65 6d bd
       -0.404694 0.06839612 0.25750604 -0.05795859
000180 57 93 2d 3e 5a 95 d0 bd a9 dc b5 be 38 0f 01 be
       0.16950737 -0.101847365 -0.35519913 -0.12603462
000190 17 f0 7d be 6b 41 07 be 9b 54 de bd b2 c3 0d 3e
       -0.24798618 -0.13208549 -0.10855981 0.13844183
0001a0 25 83 db 3c 44 af 1e be 02 78 36 be c0 2a b4 be
       0.026795933 -0.15496546 -0.17819217 -0.35188866
0001b0 a2 69 c5 3c 31 e0 c7 3d de c9 c4 3d e8 3f b1 bb
       0.024098221 0.09759558 0.096088156 -0.0054092295
0001c0 b2 4c 38 3e c6 5c 3b be 3f 23 41 3d f8 90 6e bd
       0.17998007 -0.18297109 0.047152754 -0.05824372
0001d0 77 2e 15 3e 38 9b 73 3e 16 0e 99 3d e6 74 1e bc
       0.14568506 0.2378968 0.0747339 -0.009671425
0001e0 c9 b2 de bc d5 73 d0 bd 8c 2c 59 be d2 58 74 be
       -0.02718486 -0.10178343 -0.212084 -0.23862007
0001f0 da a0 d6 bd f0 02 48 3e 40 72 97 3e 4b 6d 0c 3c
       -0.10479899 0.1953237 0.29579353 0.008570979
000200 f2 47 d3 bd aa c9 b2 be 16 44 db 3e 7b 3c b0 bd
       -0.10316457 -0.34919482 0.42825383 -0.08605286
000210 2e a1 b1 be 37 60 ea bc 0a 53 81 be 94 f1 45 3d
       -0.34693283 -0.028610332 -0.25258666 0.04832609
000220 88 9c 97 3c 55 db e7 bc ea aa 70 be c3 e5 b4 bd
       0.018507257 -0.028302828 -0.23502699 -0.08832886
000230 5f b3 d7 be eb 02 64 be 33 fd 93 3e 7e a7 8c be
       -0.42129037 -0.22266738 0.28904113 -0.27471536
000240 ce 3a fb 3d c3 0f b9 bd 9c 35 01 3d 09 d1 2c be
       0.122670755 -0.090362094 0.031545267 -0.16876616
000250 3d e3 d5 be 23 2f 24 3e 92 fd 1a 3e 96 95 65 3e
       -0.41774932 0.16033606 0.15135792 0.22420344
000260 c0 6d f6 3d ae f6 d2 3d 67 2d a7 be dd 60 8e 3d
       0.12032652 0.10300957 -0.32651827 0.06952069
000270 86 74 2d bd e0 f6 cc bd 15 0b f6 bc 13 47 a6 3e
       -0.042347454 -0.10008025 -0.030034581 0.324761
000280 fe cf 17 be f4 c9 95 3e a8 7d 41 be 29 c2 43 3e
       -0.14825436 0.2925564 -0.1889559 0.19117035
000290 f4 45 8d be 3f ad ec bb d9 bd 68 3d 71 78 a9 3d
       -0.27592432 -0.007222801 0.056821678 0.082749255
0002a0 f2 f9 cf bd ba a2 5e 3e 74 49 a5 bd 8d 81 ac be
       -0.10155095 0.21741763 -0.08070651 -0.3369259
0002b0 ac 87 af be c4 f0 8a 3c d6 e6 f9 3e 99 23 90 3e
       -0.34283197 0.01696051 0.48808926 0.2815216
0002c0 29 53 9f 3e 6c cf 72 be 6f 0c fb bc 56 f9 08 3f
       0.31118134 -0.23711938 -0.030645577 0.53505456
0002d0 8c c2 b4 bd 99 e1 68 be ef a5 8a 3d fa a0 bf 3c
       -0.08826169 -0.22742309 0.067699306 0.02339219
0002e0 94 de ee 3d 8c 05 60 bc 93 b2 92 be 86 6b 2d 3e
       0.11663547 -0.0136731975 -0.28651866 0.16935548
0002f0 11 81 1b be d1 04 7b bc 3d 3d 63 bb 14 7b b6 3d
       -0.15185954 -0.015320973 -0.0034673952 0.08910194
000300 de ae cb bd 8b f6 40 be 87 8d 40 be 63 9a 3e bd
       -0.09945463 -0.18844049 -0.18803988 -0.046533953
000310 8e aa 39 bc 5a 0a 83 be 1a b1 88 bd 8d 80 f1 3d
       -0.011332167 -0.25593835 -0.066744044 0.11792097
000320 ce df 65 3e 5c 08 3d 3e b3 47 96 3e 4d 2d a7 3e
       0.22448656 0.1846022 0.29351577 0.3265175
000330 eb 38 08 3e 7a b8 7a 3c 3d 08 33 be 40 2d 5f be
       0.13302962 0.015302772 -0.17483611 -0.21794605
000340 62 a9 19 3d f6 7d 37 bd 25 86 af be 8c 82 03 be
       0.03751505 -0.04479786 -0.34282032 -0.12842768
000350 28 a6 5f be d3 6e 05 be c5 2a 13 3e de 37 e5 3c
       -0.21840727 -0.13030557 0.14371784 0.027980741
000360 e6 e1 db be 35 cb 2d be 02 16 db bd 44 82 81 3e
       -0.42945784 -0.16972049 -0.10697557 0.25294697
000370 57 b1 3c 3c 9a 6c 97 3b 27 8e 45 be 7f 9d ae bd
       0.0115168905 0.0046211006 -0.19292508 -0.08526134
000380 51 61 15 3d 1a b5 9f 3d 37 9a 7a bd f3 23 07 3e
       0.03646976 0.07798214 -0.061182227 0.13197307
000390 9d 66 02 3e 09 06 fc bd 53 87 92 3e 7d c4 ad 3e
       0.12734456 -0.123058386 0.2861887 0.3393897
0003a0 1d 03 b1 3e 5c 2f 90 3d e4 78 a1 be ec 4c c6 bd
       0.34572688 0.07040283 -0.31537545 -0.096826404
0003b0 40 11 a2 be ef c5 f6 3e 82 f0 d8 be 25 04 99 be
       -0.31653786 0.48197886 -0.42370993 -0.29885975
0003c0 15 39 0a be db 65 6e 3e 8e bb 1e be 18 f0 97 be
       -0.13498338 0.23281042 -0.15501234 -0.29675364
0003d0 cc 6f 70 be 0a 2e af 3c 3d 21 c2 3d 82 3b f0 bc
       -0.23480147 0.021384258 0.09478996 -0.02932525
0003e0 81 f4 ad 3c d0 08 aa 3e 8d 56 32 3d 6e fe ff bd
       0.021234753 0.33209848 0.043539573 -0.124997005
0003f0 25 e9 73 be e1 c5 cd 3d 93 62 86 be 74 34 ab 3e
       -0.23819406 0.10047508 -0.2624708 0.33438456

predictor.0.bias f4 [64]
000000 0e f1 64 3e 8b 0c 1b 3e 45 bc 1c bd 2c 91 f1 bd
       0.2235758 0.15141504 -0.038265485 -0.117952675
000010 d8 df 75 3e b6 d6 1a be 10 5c bc 3d 3a 08 31 be
       0.24011171 -0.15120968 0.09197247 -0.17288294
000020 90 e4 1a be 2b 4c 0d 3e 76 e6 a8 bd 7c b3 50 3e
       -0.15126252 0.13798587 -0.08247082 0.20380968
000030 b5 bf 3a 3d fd 67 dc bd 2c 3e 99 3d ae c7 8b 3c
       0.045592982 -0.10762022 0.074825615 0.017062988
000040 b0 4b 82 3d f4 9d a2 3d d8 4b 40 bd d1 20 e0 3e
       0.063620925 0.079402834 -0.04694733 0.43775037
000050 ce fe ee bd 1a 43 d3 bd cc f9 3f be ee 0e db 3d
       -0.11669694 -0.10315533 -0.18747634 0.10696207
000060 b4 c8 8c 3d a0 40 c7 bd 68 b7 88 be 24 64 3f 3e
       0.068742186 -0.09729123 -0.26702428 0.18690544
000070 1c ff 0f bd a9 dd 87 bd 48 ca 17 3e 59 8b b9 3d
       -0.0351554 -0.06634075 0.14823258 0.090597816
000080 6d ba a0 3d 1e 92 92 3c 2d bc c3 3c b3 7c 99 3e
       0.07848058 0.01789194 0.02389344 0.2997795
000090 09 29 25 be c5 fb 6e 3d a9 60 90 bc 85 d6 17 be
       -0.16128935 0.058345575 -0.017624216 -0.14827926
0000a0 1a 40 5e 3e f3 2c 00 3e 7a 58 82 bd d5 19 c8 3d
       0.2170414 0.12517147 -0.06364532 0.09770552
0000b0 30 76 65 be 23 58 15 be 07 83 ab bd 65 2c 36 3e
       -0.22408366 -0.14584403 -0.08374601 0.17790373
0000c0 46 8e 28 bc 13 5c cc be b0 56 52 bd 43 d4 72 bc
       -0.010287827 -0.39913997 -0.051352203 -0.014821115
0000d0 04 8b 67 3e 94 97 87 3e 22 56 8e 3c d2 a8 ac 3d
       0.22611624 0.26482832 0.017375056 0.084306374
0000e0 d5 e8 f6 3d fd 0d 88 3e d9 1d 2d bd b2 48 7a 3d
       0.12056128 0.26573172 -0.042264793 0.061104484
0000f0 19 35 84 3e f7 50 b8 bb d6 c4 fb 3d 96 08 9c bd
       0.2582176 -0.005624886 0.12293403 -0.07618825

predictor.1.bn1.weight f4 [64]
000000 63 e0 51 3f 2d 85 58 3f 3f db 5b 3f 5e ea 64 3f
       0.8198301 0.8457821 0.8588142 0.89420116
000010 8a 55 dc 3e 84 be 2f 3f 60 1f a6 3f fa 9d 6b 3f
       0.4303401 0.6865008 1.2978325 0.9203793
000020 a8 3a 8b 3f e5 bb 9e 3f 31 34 8b 3f 80 13 56 3f
       1.0877275 1.2401091 1.0875303 0.83623505
000030 f6 81 41 3f 8d 46 56 3f e4 80 38 3f f8 c7 47 3f
       0.7558893 0.837014 0.7207167 0.78039503
000040 d1 6a 88 3f 78 ee 79 3f 62 d4 80 3f f4 9e 92 3f
       1.0657598 0.976295 1.0064814 1.1454759
000050 34 91 30 3f 83 94 73 3f 2f 89 73 3f f4 43 3b 3f
       0.6897156 0.95148486 0.951312 0.73150563
000060 10 6b 8a 3f 3e c2 47 3f fb 86 84 3f 19 65 4a 3f
       1.0813923 0.78030765 1.0353693 0.7906051
000070 ba 5b 83 3f 71 6c 9e 3f b9 c4 17 3f cf b8 42 3f
       1.0262368 1.2376844 0.5928455 0.76063246
000080 1a 19 96 3f 80 43 fc 3e 9f 0a a7 3f 01 02 32 3f
       1.172641 0.49270248 1.3050116 0.6953431
000090 f6 d9 7c 3f e5 55 37 3f 37 d3 86 3f b1 10 35 3f
       0.9877008 0.7161544 1.0533208 0.70728594
0000a0 1f 0d 81 3f da d5 87 3f 05 12 58 3f 12 05 71 3f
       1.0082129 1.0612137 0.84402496 0.9414836
0000b0 69 c3 0d 3f 28 88 91 3f f7 8a a1 3f 38 35 5e 3f
       0.553763 1.1369677 1.2620534 0.86799955
0000c0 cc 06 5e 3f 16 c5 67 3f 04 d9 64 3f a1 f7 6b 3f
       0.8672912 0.90535104 0.8939364 0.92174727
0000d0 19 09 a4 3f 2f 13 46 3f f3 54 85 3f 55 ff 11 3f
       1.2815276 0.7737302 1.041655 0.5703023
0000e0 1c 94 5b 3f ff 79 9a 3f 9a f7 90 3f de 3c 77 3f
       0.8577287 1.206848 1.1325562 0.9657725
0000f0 1e 1f 8d 3f bb df 97 3f 17 b3 72 3f a9 7f 73 3f
       1.1025121 1.1865152 0.9480452 0.9511667

predictor.1.bn1.bias f4 [64]
000000 10 7f 64 be be 76 b4 be b2 23 7e be e9 e3 b6 bd
       -0.22314095 -0.35246843 -0.24818304 -0.08930189
000010 e8 00 f5 be 11 01 f8 be 67 e5 52 bd 09 5c 10 bf
       -0.47852254 -0.48438314 -0.051488306 -0.56390435
000020 af fb e6 be 35 cb 69 be fc 2d 88 be 17 57 f6 be
       -0.45113894 -0.22831424 -0.26597583 -0.4811332
000030 18 0a a2 be 01 af 92 be e3 b6 88 be 11 28 69 be
       -0.31648326 -0.28649142 -0.26702031 -0.2276919
000040 6d 6b 2e be 2f c1 94 be 94 c6 77 be f6 bf 8d be
       -0.17033167 -0.29053637 -0.24196845 -0.27685517
000050 24 ba ae be 54 ed 5e bc 5e b1 36 bd c4 b4 70 be
       -0.3412639 -0.013606388 -0.044602744 -0.23506457
000060 52 e5 79 3c 57 9f b3 be dc 83 4c be 1d 32 6b be
       0.015252428 -0.35082504 -0.19972175 -0.22968335
000070 7c 5b 9c be ea ba 0d be 24 b3 b7 be 57 1d 8b be
       -0.30538547 -0.13840833 -0.3587886 -0.27170822
000080 38 f9 06 be bb 16 8a be 6f 4a d4 be 02 36 53 be
       -0.13181007 -0.26970467 -0.41463038 -0.20626071
000090 cc 2f 81 be 01 8e 44 be 39 fe 0d be f8 9b aa be
       -0.2523178 -0.19194795 -0.1386651 -0.3332212
0000a0 6b 57 d5 be ee fe 69 3c 66 f1 37 be ac c9 68 be
       -0.41668257 0.014281971 -0.1796318 -0.22733182
0000b0 d0 70 93 be 78 d8 b1 be 6b da be be e8 7e 9a be
       -0.28797007 -0.34735465 -0.37276015 -0.30174947
0000c0 37 9a f1 be 19 76 77 be 4f e6 7b be 13 6f c0 be
       -0.4718797 -0.24166144 -0.24599575 -0.37584743
0000d0 1d 46 8e be 96 73 4e be cd ab 48 be 90 08 0a be
       -0.27787867 -0.2016128 -0.19596787 -0.13479829
0000e0 c5 01 4b be 1c 6d b2 bd 13 fb 32 be ba ec ec bd
       -0.19824894 -0.08712217 -0.1747859 -0.115685895
0000f0 41 ee 63 be 2a 3a 9a be 31 5a 6c be 10 89 fb be
       -0.22258855 -0.301225 -0.2308128 -0.49128008

predictor.1.bn1.running_mean f4 [64]
000000 ec 01 6e 40 a8 bf ec 3f 35 bf 45 3f f6 20 20 3f
       3.7188673 1.8495989 0.77244884 0.62550294
000010 86 9f 7e c0 82 ed 2b c0 9e 44 60 c0 10 a6 93 c0
       -3.9784865 -2.6863713 -3.504188 -4.6140213
000020 77 5d 82 c0 52 81 90 bf 74 cd 3d bf 97 d0 6e c0
       -4.0739093 -1.1289465 -0.7414162 -3.7314813
000030 23 cd 21 c0 2c 37 34 3e 37 39 0e 40 41 fc 2f 40
       -2.5281456 0.17599171 2.222242 2.7497714
000040 3f b2 0e 40 c7 7f 8f bf 78 eb 1b bf 58 99 2c 3e
       2.2296293 -1.121087 -0.6090617 0.16855371
000050 5d fe 6a 40 1b e3 2b c0 30 84 ab be c8 41 ac 40
       3.671775 -2.6857364 -0.3349929 5.38303
000060 3b 1b 9a 3f 17 e2 33 c0 6e fb bd 3f 90 16 24 c0
       1.203956 -2.8106744 1.4842355 -2.563877
000070 3f 08 14 c0 b3 41 1d 40 af 98 85 c0 47 63 f2 bf
       -2.3130033 2.457135 -4.174888 -1.8936547
000080 4c 3b 05 c0 dc 43 c7 40 5d 18 76 3f 80 a9 a7 40
       -2.0817442 6.2270336 0.96130925 5.239441
000090 bd be 1a bd 2a 00 cd 3f f8 5d a2 be 7a 0b 42 40
       -0.03777956 1.6015675 -0.31712317 3.0319505
0000a0 52 b1 b3 bf 57 f2 77 3f 8a 85 ad 3f 0a 64 38 bf
       -1.4038489 0.96854156 1.3556378 -0.7202765
0000b0 85 8c 0a 41 f1 67 62 3e 58 d6 b3 be 5e ec 5b bf
       8.659307 0.22109963 -0.3512447 -0.8590754
0000c0 6b d5 06 c0 d5 ba 1b be d7 d4 ee 3e cf 1c ca be
       -2.106776 -0.1520799 0.4664676 -0.39475104
0000d0 a6 03 3a 3f 5a db 59 bf 39 f2 32 be b0 61 fa 40
       0.7266182 -0.8510033 -0.17475213 7.8244247
0000e0 5f 36 43 c0 b5 93 92 3f d3 9d 58 bf 5e 61 8b 3e
       -3.0501935 1.1451327 -0.8461582 0.27222723
0000f0 fd 6c 59 3f b3 64 80 3f d1 5a 0b c0 37 cc dd bf
       0.8493193 1.0030731 -2.177418 -1.7327946

predictor.1.bn1.running_var f4 [64]
000000 b6 69 ac 40 06 7c 20 40 e5 e6 ca 3f 08 74 e7 3f
       5.387904 2.5075698 1.5851713 1.8082285
000010 65 f7 bf 40 8a d9 94 40 14 81 fb 40 87 50 07 41
       5.9989495 4.651555 7.8595066 8.45716
000020 23 db fa 40 e3 81 a8 40 8b 00 55 40 8b 6a 10 41
       7.83925 5.2658553 3.3281581 9.026011
000030 71 73 8c 40 a4 83 67 40 c8 53 86 40 19 bc 59 40
       4.389092 3.6174097 4.197727 3.4021056
000040 ba 89 b3 40 03 38 97 40 a1 e8 8a 40 b3 bc 9a 40
       5.6105623 4.7255874 4.340897 4.8355346
000050 5c 8a d6 40 59 51 9a 40 b1 3a 58 40 01 d5 3b 41
       6.7043896 4.82243 3.3785822 11.739503
000060 94 bb 43 40 db 72 f9 40 a0 47 62 40 20 94 a1 40
       3.0583239 7.7952704 3.5356216 5.0493317
000070 4f 7d 51 40 3c 91 9b 40 24 f8 17 41 99 53 83 40
       3.2732732 4.861479 9.498081 4.103955
000080 9e 57 a8 40 f2 62 6d 41 79 db 4c 40 94 d5 28 41
       5.2606955 14.836657 3.2008955 10.552143
000090 f1 b2 8d 40 38 8c a1 40 f7 64 bc 40 a1 b2 b6 40
       4.4280934 5.0483665 5.887325 5.7093053
0000a0 dd 74 b1 40 2f c1 8a 40 da c3 55 40 77 03 68 40
       5.5455155 4.336082 3.3400788 3.6252115
0000b0 44 f0 e3 41 e0 b3 9a 40 1f 57 ef 3f 62 df 31 40
       28.492317 4.8344574 1.8698462 2.7792592
0000c0 e4 44 ca 40 6f 75 5f 40 86 66 2c 40 83 ac 90 40
       6.3209095 3.4915426 2.6937575 4.5210586
0000d0 86 23 c8 40 e1 98 e3 3f 4f df e0 3f f3 eb c6 41
       6.2543364 1.778103 1.7568148 24.86521
0000e0 f7 a3 b7 40 ec 24 8a 40 91 95 82 40 ec d2 56 40
       5.7387652 4.317007 4.0807576 3.3566236
0000f0 28 05 a9 40 8e a6 4e 40 84 51 9a 40 fc 3e a7 40
       5.2818794 3.2289157 4.8224506 5.2264385

predictor.1.conv1.weight f4 [64, 64, 3]
000000 30 14 93 bd bb 7d 36 3e c2 4d 72 3e 8c 19 0f be
       -0.07181585 0.178214 0.23662475 -0.13974589
000010 6b d4 c3 3b fd 1f 95 bd 5f 08 30 3e df 42 d0 bd
       0.00597625 -0.07281492 0.17190693 -0.10169005
000020 0b cc 14 3e a2 4d 33 be 8b e1 7a be 9e c2 76 be
       0.14530961 -0.17510083 -0.245001 -0.24097678
000030 82 a3 18 3e 43 cc b5 3d cc 84 ad be 2b 77 7a be
       0.14906123 0.088768505 -0.33890378 -0.24459521
000040 02 c3 f7 3d 2d 74 dc 3d 30 b9 83 3d 27 9c 1a be
       0.12097742 0.10764346 0.06431806 -0.1509863
000050 27 22 04 be 34 15 88 be 01 f0 eb bd ea df bb bd
       -0.12903653 -0.26578677 -0.115203865 -0.091735676
000060 1a af 2d be 57 d8 93 bd 13 01 31 3e 08 fc 5a bd
       -0.16961327 -0.07218998 0.17285566 -0.053463012
000070 a9 c5 84 be f8 b5 6f 3e 17 e1 03 bd 7d 74 88 be
       -0.25932053 0.2340926 -0.032197084 -0.26651374
000080 58 8c fb 3d 0e 21 b8 3d 81 24 03 bc 8b 91 d2 3d
       0.12282628 0.0899068 -0.008004309 0.10281666
000090 c6 87 91 bb 1f f1 e3 bd 0a 61 5c be d5 01 bb bc
       -0.0044412343 -0.111299746 -0.21521392 -0.022828022
0000a0 91 22 81 be 14 b2 91 3d 7e 67 3a 3e 57 5e 32 bc
       -0.25221685 0.07114044 0.18203542 -0.01088675
0000b0 aa 83 a9 3d 14 8d 61 3e 23 66 85 3d d9 e6 52 bd
       0.08277066 0.22026473 0.06513622 -0.051489685
0000c0 57 4b 99 bd f4 d2 93 3e e8 35 1a 3e ed a7 32 3e
       -0.07485073 0.28871882 0.15059626 0.17446871
0000d0 b3 6e 9e 3e 0f 17 80 3d dd 06 23 bd 39 c3 45 3a
       0.30943832 0.06254398 -0.039801467 0.0007544044
0000e0 5a 56 87 3d 63 64 52 3e 88 11 21 bd 84 ef 0f be
       0.06608267 0.20546107 -0.03932336 -0.14056212
0000f0 3e dc 88 3e 2b 4b 4b bc 91 cd 80 bd 94 c8 b4 3c
       0.2673053 -0.012408058 -0.06289209 0.0220683
000100 c1 e7 cb 3b fb a9 bb be b1 98 96 3d 09 09 05 3d
       0.0062226956 -0.36653122 0.07353342 0.03247932
000110 ba 9d 2f 3d bc db 02 bd 41 61 24 3e 75 4e bb 3d
       0.04287503 -0.031947836 0.16052724 0.09145824
000120 03 98 a3 3c b3 6a 14 be 6b 06 be be 79 8b f4 3d
       0.019969946 -0.14493828 -0.37114272 0.11940665
000130 fd 5a 69 be 54 cb 0a 3d 35 81 24 3e 62 27 92 bd
       -0.22788616 0.033885315 0.16064914 -0.07136418
000140 5e 1c 2b 3e b0 01 91 bd f2 39 61 3e 4e c8 ea bd
       0.1671004 -0.070804 0.2199476 -0.11463986
000150 20 00 c3 3e 94 f6 4a be 93 75 f4 3d e7 04 bb bd
       0.38086033 -0.19820625 0.11936488 -0.091317944
000160 72 9d 90 be 0a 6f 39 be b4 9a dc bd 39 22 26 bd
       -0.2824512 -0.18108764 -0.10771695 -0.04055998
000170 ed 34 b7 be 36 5f 10 be 69 80 17 be 15 63 17 bc
       -0.35782567 -0.1409882 -0.14795078 -0.009239932
000180 fc 4f c1 3c 1a 50 3b bd 87 c0 84 be b3 48 db 3d
       0.02359771 -0.045730688 -0.25928137 0.10707226
000190 5b b7 28 3e 4e 71 f9 3d 97 de f9 bd 8d 47 11 bd
       0.16476195 0.12179814 -0.12200659 -0.035468627
0001a0 da 99 aa 3e 8b 9b e2 bc 5e 40 f3 bc 69 71 71 be
       0.33320504 -0.02766206 -0.029693779 -0.23578419
0001b0 30 99 a1 3e 5d 61 1b 3d e8 dd 9f be 46 3d e0 3d
       0.31562185 0.03793465 -0.3122399 0.10949187
0001c0 ee 6b 0b be 35 24 98 3e bd dd f8 3c 06 18 63 be
       -0.1361539 0.29715124 0.03037917 -0.22177133
0001d0 d1 a0 00 3e 21 ac b5 3d a6 92 14 3d 94 2a 43 3e
       0.12561347 0.088707216 0.036272667 0.19059211
0001e0 ec f1 44 be 3b 87 63 be f7 f5 ef 3d 7e da f0 3d
       -0.19232911 -0.22219555 0.11716836 0.11760424
0001f0 83 36 c5 bd 37 66 2d 3e 36 3c d5 3d 86 bc 5c 3e
       -0.09629538 0.16933523 0.10411875 0.21556291
000200 ec 93 f1 bd c2 8b 92 3d 40 79 49 bd f0 b7 cb 3c
       -0.11795792 0.07155563 -0.0491879 0.024867982
000210 57 52 78 3d ab 73 23 3e 12 b2 d4 3d f1 77 ce 3d
       0.0606254 0.15962093 0.10385527 0.10081471
000220 68 e4 ff ba af 95 98 3b d0 12 a4 3d 39 27 39 3e
       -0.0019523026 0.0046565155 0.08011401 0.18081369
000230 f4 a4 99 be 96 e9 00 be 7b 9b b5 3e dd ca cf bd
       -0.30008662 -0.12589106 0.35470185 -0.10146115
000240 e2 35 25 3e b5 a8 5d be fb 54 c5 be f8 e9 65 3e
       0.16133836 -0.21646388 -0.38541397 0.22452533
000250 4f c7 0c 3d 9f 77 8a 3d 87 8b 91 be 9a 88 5f bd
       0.034369763 0.06761097 -0.28426763 -0.054573633
000260 cf c4 9e 3e 33 c7 48 3d 74 75 91 3e f8 c9 1d 3d
       0.31009528 0.049018096 0.28409922 0.03852269
000270 5f a5 96 3b ef a8 ec bd cd 6a ae bc 29 32 54 be
       0.0045973505 -0.11555659 -0.021291161 -0.2072226
000280 3f 0d 26 3d 9d 45 a0 bd 5b 19 01 3d e1 5e 8e 3d
       0.040539976 -0.07825778 0.03151832 0.069516905
000290 27 47 2f bc 2c 11 20 3e 5d 1e 8f 3e d1 a0 8b 3d
       -0.010698116 0.1563155 0.27952853 0.06817783
0002a0 59 a1 5c 3e 34 c4 73 3d 7e 72 1d be f6 39 87 3d
       0.21545924 0.059513286 -0.15375707 0.06602852
0002b0 b3 3b 64 bc ad 4e 1e be fa 53 29 3d 34 71 c4 3e
       -0.013930249 -0.154597 0.041339852 0.38367617
0002c0 f3 d1 6f bc fe 72 94 3d 25 ad f0 bd c7 87 f9 3c
       -0.014637458 0.072484955 -0.11751775 0.030460251
0002d0 d2 11 61 3e 93 82 94 3d 17 d2 24 bf 38 4b 99 bc
       0.21979454 0.072514676 -0.6438307 -0.018712625
0002e0 7e 11 28 be d1 90 f7 be d4 f0 ed 3a 3c bc 8b be
       -0.16412923 -0.48352674 0.0018153437 -0.2729205
0002f0 79 b1 cb be 1e 80 5b bd db 5e 59 bd 2a 08 79 3e
       -0.39783838 -0.05358898 -0.053068977 0.2431952
000300 c0 00 98 be 55 2b 01 bf 81 71 a6 3d fb 50 e7 3d
       -0.29688072 -0.50456744 0.08127118 0.11294743
000310 15 92 62 be 2b cd b0 bd ac 42 64 3d 22 c3 1c 3e
       -0.22126038 -0.08632883 0.055727646 0.15308812
000320 e7 8b 92 3c 8f 8b 7d bd 23 40 94 be 23 72 a5 bd
       0.017888976 -0.06190067 -0.28955182 -0.080784105
000330 f6 c6 d9 3d 13 d8 82 be 99 05 01 3c e4 df 62 bd
       0.10633652 -0.25555477 0.00787487 -0.0553893
000340 fc f4 79 be ef 38 ad 3d d2 cf de 3d c5 9d da bd
       -0.2440986 0.08458125 0.10879482 -0.106746234
000350 e6 3a ad 3d b5 a8 41 bc 30 dd 18 bd 56 b6 23 3d
       0.084584996 -0.011820008 -0.037320316 0.03996881
000360 bd 16 1f be c1 b9 cb 3e 9e a0 b7 3c ad c5 45 be
       -0.15536018 0.39790156 0.022415455 -0.19313689
000370 ac bd 05 3e 63 98 be 3d b9 cd 04 bd 76 37 4b 3e
       0.13060635 0.09306409 -0.032422755 0.19845375
000380 ca 4d 9b 3c 75 a0 1c bd 71 8c 33 3d 1c 88 65 bc
       0.018957991 -0.03823896 0.043835107 -0.014009502
000390 6c c0 b4 3d 65 a9 3c bc fc 47 86 bd ec eb 45 be
       0.08825764 -0.011514996 -0.06556699 -0.19328278
0003a0 04 49 84 be ea 64 4c 3e b0 91 5d be 78 08 98 3b
       -0.25836957 0.1996037 -0.21637607 0.0046396814
0003b0 07 c2 10 be b6 ee 53 be 22 a0 8f 3d d4 5d 96 3d
       -0.14136516 -0.2069653 0.07012965 0.07342115
0003c0 45 1a ca be 08 92 6d bd 42 ad 0b 3c 54 1c 71 bd
       -0.39473167 -0.058000594 0.008525195 -0.058864906
0003d0 64 d4 8e 3d cf 4b 1d bd ec 6a d9 be 73 0d 73 bd
       0.06974104 -0.038402375 -0.42464387 -0.059338998
0003e0 95 4a 77 3e 2a 15 6e 3e 72 aa 0c 3e fb 11 e0 bd
       0.24149545 0.23250261 0.13736895 -0.109409295
0003f0 6c 77 4c 3e f4 f8 03 3e cb 59 b6 bb bf 59 16 3c
       0.19967431 0.12887937 -0.0055649034 0.009176671

predictor.1.bn2.weight f4 [64]
000000 e2 94 73 3f ec c5 a5 3f 88 14 90 3f 9a 36 85 3f
       0.9514905 1.2951026 1.1256266 1.0407288
000010 9e 33 90 3f 6f 92 9a 3f 3c 73 48 3f c2 06 7c 3f
       1.1265752 1.2075938 0.78300834 0.9844781
000020 73 52 71 3f 64 de 8a 3f 9f a3 7e 3f 59 cb 76 3f
       0.9426643 1.0849118 0.99468416 0.96404034
000030 d8 e0 63 3f a4 55 87 3f 65 51 3f 3f 03 2c 79 3f
       0.8901496 1.057301 0.74733573 0.9733278
000040 b4 b9 3d 3f 42 27 8f 3f 4b 9f 77 3f fa b7 86 3f
       0.74111485 1.1183856 0.96727437 1.0524895
000050 95 51 71 3f 97 60 7e 3f db d7 89 3f cc 2e 89 3f
       0.9426511 0.99366134 1.0768999 1.0717406
000060 4c a3 80 3f 7f 63 8f 3f 3f 42 6c 3f 8c 94 83 3f
       1.0049834 1.1202239 0.92288584 1.0279708
000070 53 5e 39 3f 88 46 89 3f 1d 58 84 3f 9d 41 5c 3f
       0.7240955 1.072465 1.033939 0.8603762
000080 71 e8 66 3f f2 53 88 3f 06 ac 5d 3f 0a a8 57 3f
       0.9019843 1.0650618 0.8659061 0.8424078
000090 5c b5 75 3f 13 f9 74 3f 56 f2 2b 3f aa 15 87 3f
       0.9597986 0.9569256 0.6716665 1.0553486
0000a0 53 6b 72 3f 33 f3 71 3f fc d5 73 3f 7d d8 85 3f
       0.94695014 0.9451172 0.9524839 1.0456692
0000b0 66 41 75 3f a1 3c 6b 3f c5 32 77 3f 7d 54 73 3f
       0.95802915 0.9188939 0.96561843 0.95050794
0000c0 c1 5b 78 3f 0c cc 86 3f 50 d6 89 3f 74 31 7e 3f
       0.97015005 1.053102 1.0768528 0.9929421
0000d0 db 6f a0 3f c5 7c 84 3f 20 2c 7e 3f f7 b2 81 3f
       1.2534136 1.0350577 0.9928608 1.0132741
0000e0 4c da 61 3f 75 e1 78 3f 03 15 70 3f ea 45 57 3f
       0.8822372 0.9721902 0.9378206 0.84091055
0000f0 1e 36 77 3f ae f0 8c 3f fc bc 79 3f e2 07 7e 3f
       0.9656695 1.101095 0.9755399 0.9923078

predictor.1.bn2.bias f4 [64]
000000 d4 9f dd 3b b5 cd 05 bf 52 08 8e be a5 d8 0a be
       0.0067634378 -0.5226701 -0.27740723 -0.13559206
000010 22 76 3d be 15 50 b8 be b8 7f 6b be a0 86 32 be
       -0.18502095 -0.35998598 -0.2299794 -0.17434168
000020 e1 07 7a be cd 12 44 be 26 d9 64 bd 9d dc 62 be
       -0.24417068 -0.19147797 -0.05587115 -0.2215447
000030 89 ee 0b bd cc 08 08 be da 28 13 be ec d0 ce bc
       -0.03416303 -0.13284606 -0.14371052 -0.025246106
000040 de bc 1b be a5 d9 b5 be 32 b6 a9 be cc 98 92 be
       -0.15208766 -0.35517612 -0.33146816 -0.286322
000050 8a 84 8f be 67 78 e2 bd 93 d1 8d be 44 9e 0f be
       -0.28030807 -0.11058121 -0.27698955 -0.14025217
000060 4a ae c4 be e2 76 6d bd 88 e6 3f be df 90 98 be
       -0.38414222 -0.057974704 -0.18740284 -0.29798028
000070 b0 78 19 bd bb 60 5e be 7b 9c fa be 15 11 b2 bd
       -0.037468612 -0.21716587 -0.4894751 -0.086946644
000080 a3 9a 3f be 42 1b 2a bc 43 f3 c4 be ba 97 67 be
       -0.18711333 -0.010382475 -0.38466844 -0.22616473
000090 3a c2 57 be ed a6 87 be 11 0e 80 be 2d 5c 02 be
       -0.21070185 -0.26494542 -0.25010732 -0.12730475
0000a0 aa d4 c8 bd 31 7e 86 bd ac 0c 51 be cc e5 68 be
       -0.098061875 -0.06567038 -0.2041499 -0.2274391
0000b0 39 21 ec 3a 81 d0 37 be 7a 4b 3d be 9c 84 8d be
       0.0018015272 -0.17950632 -0.18485823 -0.27640235
0000c0 71 8f 9a be f3 2b 8e be 4c ba 80 be 20 47 81 be
       -0.30187562 -0.27767906 -0.25142133 -0.25249577
0000d0 9f 08 43 be 8d 11 45 be cc c5 9e be 9f 3e 93 be
       -0.19046257 -0.19244976 -0.31010282 -0.28758714
0000e0 cb 52 ea be 8d 4b c1 be 38 21 82 be 89 14 7c be
       -0.4576629 -0.37752953 -0.2541597 -0.24617209
0000f0 ee 9c 83 be 71 21 78 be cb 93 9d be 77 62 b8 be
       -0.25705665 -0.24231507 -0.3077682 -0.36012623

predictor.1.bn2.running_mean f4 [64]
000000 b1 40 0a bf 7a c1 3d bf ec b4 ce bf bd fb bc bf
       -0.5400496 -0.74123347 -1.6148963 -1.4764324
000010 c5 b2 0e 3e 37 3e bd bf cc 80 b1 be a1 2b e6 3d
       0.13935383 -1.4784611 -0.34668577 0.1123879
000020 8c 45 ae bf 98 3a 5d 3f 27 c1 97 bf 4e 00 de bf
       -1.3614974 0.8641753 -1.185582 -1.7343843
000030 0f 3f 22 bf 03 c6 a8 bf 2d 53 1f bf 34 70 7d 3f
       -0.6337747 -1.3185428 -0.6223629 0.98999333
000040 7b 30 05 c0 32 8b bd bf e7 9a 8c be d8 69 84 bf
       -2.081084 -1.4808104 -0.2746193 -1.0344801
000050 6e 18 2d be 19 f6 0c bf c1 07 ac bf 2f 23 12 3e
       -0.1690385 -0.55063015 -1.3439866 0.14271234
000060 b0 00 1f 3e 79 e6 d3 be 57 92 90 be 51 a2 15 c0
       0.15527606 -0.41386774 -0.28236648 -2.338032
000070 d8 6c 31 3e ce 05 a2 bf f1 b6 9b bf ba eb af be
       0.17326677 -1.2658021 -1.2165204 -0.34359533
000080 cf e4 25 3f 44 f7 aa 3d d4 e1 e1 3e 21 17 af 3f
       0.6480226 0.083479434 0.44117606 1.3678933
000090 45 a6 00 3f 53 32 66 3e 2b 4f 5d be bd 7b 74 bf
       0.5025371 0.22480135 -0.21612231 -0.9550131
0000a0 08 9b f0 be a6 c1 98 bf c4 7a 4d 3f ad 72 59 3f
       -0.4699328 -1.1934097 0.8026545 0.84940606
0000b0 39 c0 df bf 1f 67 93 be e8 e7 37 be 8f cf ab bf
       -1.7480537 -0.28789613 -0.17959559 -1.3422717
0000c0 3b 35 c5 bf 91 f0 3a 3f 28 a7 05 c0 e5 a7 9d be
       -1.540687 0.73023325 -2.0883274 -0.30792156
0000d0 ba 15 4f 3f 3d 7a cd bf fb 12 1c 3f 70 01 9c bf
       0.8089253 -1.6052929 0.6096646 -1.2187939
0000e0 dc 3c 51 bf 62 d4 7d b8 9a d8 c1 3e 1a 5f b5 3d
       -0.8173349 -6.0517697e-05 0.37860566 0.0885603
0000f0 de 92 8b bf 88 19 5b bf 75 f9 16 c0 b9 21 1a c0
       -1.0904195 -0.8558583 -2.3589756 -2.4083083

predictor.1.bn2.running_var f4 [64]
000000 cf 69 03 40 5c 0d 3b 40 3a ea 12 40 3f 38 66 40
       2.053333 2.9226904 2.295546 3.597183
000010 21 29 26 40 b9 d3 3a 40 1c 3a 2a 40 b9 ca 34 40
       2.5962603 2.9191725 2.6597967 2.8248732
000020 25 10 3a 40 e1 6d 22 40 72 5c 5f 40 26 d4 3f 40
       2.9072354 2.5379565 3.4900174 2.9973235
000030 ae a6 3e 40 d4 19 23 40 a1 58 39 40 31 aa 6a 40
       2.9789233 2.5484514 2.8960345 3.6666377
000040 e4 cc 09 40 49 3f 07 40 24 1c f7 3f 5b 86 c7 3f
       2.1531305 2.1132376 1.9305463 1.5587877
000050 68 33 e8 3f af 35 1b 40 02 56 17 40 d2 de 42 40
       1.8140688 2.4251516 2.3646245 3.0448499
000060 e8 a3 18 40 a4 90 03 40 ee 36 31 40 4f bf 3f 40
       2.385004 2.0557032 2.7689776 2.9960515
000070 32 35 a0 40 16 fd e8 3f f7 df c2 3f ec 95 00 40
       5.0064936 1.8202236 1.5224599 2.0091505
000080 2c 31 30 40 f7 14 49 40 9d 1e 28 40 fb 02 40 40
       2.7530012 3.1419046 2.6268685 3.000182
000090 9d 01 29 40 58 60 55 40 0e 7e 04 40 f1 2d 28 40
       2.6407235 3.3340054 2.0701938 2.627804
0000a0 5e be 70 40 7e f2 27 40 48 19 0a 40 93 a1 eb 3f
       3.761619 2.6241755 2.157793 1.8408684
0000b0 1f a9 14 40 b0 53 f3 3f 80 09 19 40 27 b6 63 40
       2.3228223 1.9009914 2.3912048 3.5579927
0000c0 ee 6b c6 3f 11 20 2d 40 41 9e 75 40 85 4a 11 40
       1.5501688 2.7050822 3.837784 2.2701733
0000d0 80 f6 54 40 c7 98 63 40 f6 2f 25 40 83 d8 b9 3f
       3.3275452 3.5561998 2.5810523 1.4519199
0000e0 f4 f0 5f 40 7a a2 20 40 fb 8a 51 40 97 3e f3 3f
       3.4990816 2.5099168 3.2741077 1.9003476
0000f0 d0 8f 4d 40 7b 5a 32 40 7c 1f 41 40 d2 97 70 40
       3.2119026 2.7867725 3.0175467 3.7592664

predictor.1.conv2.weight f4 [64, 64, 3]
000000 c0 84 4b 3e 73 e1 9e be f6 ac 6a 3c a4 a2 8e be
       0.19874859 -0.3103138 0.014323464 -0.2785846
000010 de 1c a2 bc d7 43 82 3e 1b a1 6f be 18 67 9d bd
       -0.019789156 0.25442383 -0.234013 -0.07685679
000020 90 33 83 bc 86 54 b3 3d 6a e0 c4 bb 44 fb b3 bd
       -0.016015798 0.08756356 -0.0060081976 -0.087881595
000030 f6 a7 89 3c 69 50 c3 3d 9f 6b 9c bd 5b 34 01 be
       0.016803723 0.095368214 -0.076377146 -0.12617628
000040 b7 63 b5 3d bb 5e 14 be 7b 0a 15 be be bc 21 be
       0.0885691 -0.14489262 -0.14554779 -0.15794656
000050 a8 fb cc bc e6 fa ae bd 17 4f bf 3c e6 8e 97 bc
       -0.025022343 -0.08543949 0.023353143 -0.018500756
000060 d9 5f 85 3c 5c 7c 6d bd a1 99 3f bd 9a f4 47 3c
       0.016281055 -0.057979926 -0.04677737 0.012204314
000070 0e ef 65 be f5 dc 96 bd a3 9d b1 be be eb 29 be
       -0.22454473 -0.07366363 -0.3469058 -0.16593835
000080 9e 19 55 be 4f 47 e4 be a7 9d aa 3c 8c 17 04 be
       -0.20810553 -0.44585654 0.020827128 -0.12899607
000090 31 2a 66 3d 9f 4f ad 3c 02 ec 04 bd c2 91 9b 3e
       0.05619258 0.02115613 -0.032451637 0.30384642
0000a0 01 83 49 3e 8d a1 2a 3e 0f 02 9c be af 5d c8 3d
       0.1967888 0.16663189 -0.3047032 0.09783494
0000b0 f0 70 aa 3d 54 91 ca 3d a9 ce 6e be 0c 63 1c be
       0.08322322 0.098910004 -0.23321022 -0.15272158
0000c0 2b e8 41 3e c9 27 63 be 82 6d 2b bd 9a 25 2b bd
       0.18936221 -0.22183146 -0.04185248 -0.041783907
0000d0 d2 2b ba 3d 55 72 b0 be b7 8c 3e be 0f a7 07 be
       0.09090389 -0.34462228 -0.18608366 -0.13247322
0000e0 8a 4b 77 bd 8c 75 66 3e ba 46 81 bb 94 ab e8 be
       -0.060374774 0.22505778 -0.003945199 -0.45443404
0000f0 61 23 12 bd fa 63 49 3e 27 c7 27 3d 06 ad cc be
       -0.03567827 0.19667044 0.04096141 -0.39975756
000100 96 c1 28 be 64 ea f5 bc 42 27 b4 bd eb 2f 3c 3e
       -0.16480097 -0.030018993 -0.0879655 0.18377654
000110 3b 5d 71 be 7c 7b 8c 3c de a1 63 be 66 cc 8f 3e
       -0.23570721 0.017148726 -0.22229716 0.2808563
000120 05 6a 0a be 96 cf be 3d bf 16 cb 3d b8 c6 42 bd
       -0.13517006 0.093169376 0.09916448 -0.047552794
000130 04 fe 85 bd a5 c4 97 3d d4 22 2e 3e 4b d3 5e bd
       -0.0654259 0.07410554 0.17005473 -0.054400723
000140 ec 06 18 be 9a 94 87 3e 5d 26 53 3e 38 43 a6 bd
       -0.1484639 0.26480561 0.20620103 -0.0811829
000150 b8 7f 99 3b b9 68 73 bd 62 de 3b 3d 3a 6a a8 3e
       0.0046844147 -0.059426043 0.045866378 0.32893544
000160 78 24 8f 3b f8 08 e7 3d d8 96 21 3d d0 6c 12 3e
       0.004368361 0.112810075 0.039450496 0.14299321
000170 d1 48 de 3c 2e 02 2a bd 97 fc b3 3d ae 04 58 3e
       0.027134331 -0.041505985 0.08788412 0.21095535
000180 bb 54 5b be 51 16 26 be 0e 6f 43 be bc 92 84 be
       -0.21419041 -0.1621945 -0.19085333 -0.258932
000190 ab 95 fb bc 6d 38 76 3e 24 ca af bd 23 44 80 bd
       -0.030711016 0.24044962 -0.08583477 -0.06262996
0001a0 66 f1 5e 3e e2 2f 40 3d 67 b1 2b 3e a8 46 5e 3e
       0.21771774 0.046920665 0.16766892 0.2170664
0001b0 df 3a 96 be c4 ec 47 3e 7a 71 9b bd 66 ea 36 be
       -0.2934179 0.19523913 -0.07590003 -0.17862853
0001c0 79 2b 3e bc f9 c6 38 bd 8e df a0 3d 88 e3 51 3d
       -0.011607044 -0.04511163 0.0785514 0.05124238
0001d0 a6 80 00 3e 3c 23 b6 3c 64 56 d9 3d b4 79 92 3d
       0.12549075 0.022233598 0.10612181 0.07152119
0001e0 21 3b 76 3d d2 87 7c bd 6d ff 6c be e9 bc 37 bc
       0.060114983 -0.061652966 -0.23144312 -0.011214473
0001f0 73 66 1f be b9 38 10 be 4d 21 00 3d 07 a9 42 be
       -0.15566425 -0.14084138 0.031281758 -0.19009791
000200 b0 29 69 bd 98 2d 1e be d7 a3 94 3e a8 9d 25 be
       -0.056924522 -0.1544708 0.2903125 -0.16173422
000210 56 38 8c 3e 74 ad b9 3c 94 c4 1e be 9b 84 9f bc
       0.2738673 0.022665717 -0.15504676 -0.01947241
000220 29 1d 17 bd df a3 c5 3e b2 60 09 3e a2 2e 02 be
       -0.036893044 0.38601586 0.13415793 -0.12713102
000230 75 65 a2 3e 3f df 82 3e 5e 82 95 be c4 1a ab be
       0.3171803 0.25560948 -0.29201025 -0.33418858
000240 c9 2c b3 bc 2c 49 06 3e 06 77 71 3e 0c 3d 2b be
       -0.021871941 0.1311385 0.2358056 -0.16722506
000250 db fd bc be 33 9b b1 3d 89 ee 5d 3e c2 3a 35 3e
       -0.36912426 0.0867218 0.21673025 0.17698196
000260 9c e0 05 be 1c bb 69 3d 3d 11 f1 bd 10 6f 50 be
       -0.13073963 0.057063207 -0.11770866 -0.20354867
000270 da 74 b7 be a9 33 cd be 2a 69 50 3c d7 cd 74 be
       -0.35831338 -0.40078476 0.012720386 -0.23906647
000280 0e af d9 bd 77 c0 39 be 3c 44 9b be 4b 58 b7 bd
       -0.10629092 -0.18139826 -0.30325496 -0.089523874
000290 46 a0 8c 3d b5 74 6c 3d 23 b9 45 3e 32 d9 76 be
       0.06866507 0.057728488 0.19308905 -0.24106291
0002a0 67 ea 93 3e cb a2 ad 3e 81 19 5d be 87 ce 30 be
       0.28889772 0.33913264 -0.2159176 -0.17266284
0002b0 7d 3d 4b 3e 59 da 71 be 0d 94 67 be 8d 06 d5 bd
       0.19847675 -0.2361845 -0.2261507 -0.1040164
0002c0 d9 ec 92 3d 85 eb 42 3e 71 7a 44 be fb 3f 90 bd
       0.07174081 0.19035156 -0.19187333 -0.07043453
0002d0 79 f3 2c 3e 38 4a c0 bd 17 1f 92 bb b4 e1 19 3e
       0.16889752 -0.09389156 -0.0044592726 0.15027505
0002e0 bf db 0f bd 56 30 51 3e d2 6c cb 3d 0c d7 3d be
       -0.035121676 0.20428595 0.09932865 -0.18539065
0002f0 93 34 25 bd f9 03 8d 3d a1 ae 0b be 90 e9 01 bd
       -0.04033334 0.06885523 -0.13640834 -0.031716883
000300 4c a5 35 3e 27 aa ae be 7a 84 c0 be f3 6b d1 be
       0.17738837 -0.3411419 -0.37601072 -0.4090267
000310 1e a2 14 3e 87 b5 ce 3e 85 42 c1 3e 11 ba f2 be
       0.14514968 0.4037287 0.37746063 -0.47407582
000320 80 7f 08 bc c8 15 d5 bc c2 bc c2 bd e5 71 86 3e
       -0.00833118 -0.026011363 -0.09508659 0.2625877
000330 b4 93 40 3d c9 25 63 bd ba 40 4e bd e5 d0 eb 3e
       0.04701586 -0.055455957 -0.050354697 0.4605781
000340 db 22 84 3d ca e3 b3 be 8e a9 db 3c f1 87 a3 3e
       0.06451961 -0.35134727 0.026814248 0.31939653
000350 2d df 61 be bd fd 9a 3e bc 2e 93 3e 18 4c f6 3d
       -0.22057791 0.30271712 0.28746593 0.120262325
000360 ce e0 64 be 20 86 27 3e 82 27 8a 3d 85 31 7b bc
       -0.22351381 0.16359758 0.06745817 -0.015331631
000370 9c 51 cc 3d 5b 0f 88 3e 58 d4 27 3e e2 b1 30 3e
       0.09976503 0.26574215 0.16389596 0.17255357
000380 61 64 1b be 12 e1 87 bd 8d 3f 5b be 2f cd 0f be
       -0.1517501 -0.06634726 -0.21410961 -0.14043115
000390 37 be f7 bd 9c b1 64 3d 08 44 8c 3e f3 29 2b be
       -0.120968275 0.055833444 0.27395654 -0.16715221
0003a0 2b e3 d6 3c 20 c3 4d 3e 88 79 03 be 80 45 fb 3d
       0.026231369 0.20093966 -0.12839329 0.122691154
0003b0 77 05 05 3e be 0c 4c 3d 98 1f 44 be 7d 05 35 be
       0.12990366 0.04981684 -0.19152677 -0.17677875
0003c0 e9 c7 af be 52 cf c7 bd 50 f6 a2 be a7 77 54 be
       -0.34332207 -0.0975634 -0.31828547 -0.20748769
0003d0 c9 50 df bd 5d 81 43 3c 66 2a 8a 3b 6b 6a 23 3c
       -0.109040804 0.011932698 0.00421648 0.0099741025
0003e0 84 2b ac 3b 1f f7 15 3e 1f cd 18 be 4e f1 6d be
       0.005254211 0.1464505 -0.14921997 -0.23236582
0003f0 64 bf e7 bd 63 d2 ce 3d 5e c0 c7 3c 34 68 a5 3c
       -0.11315802 0.10098722 0.02438372 0.02019129
